assets/model.tflite (tflite, 511464 bytes, 5 tensors)

dense_9/bias f4 [64]
0	0xbea1e892	-0.3162275
1	0xbea1e89a	-0.31622773
2	0xbea1e89a	-0.31622773
3	0xbea1e885	-0.3162271
4	0xbea1e89a	-0.31622773
5	0xbea1e89a	-0.31622773
6	0xbea1e89a	-0.31622773
7	0xbf5c2d16	-0.86006296
8	0xbea1e895	-0.31622759
9	0xbea1e89a	-0.31622773
10	0x423633d2	45.550606
11	0xbdfeafd4	-0.1243588
12	0xbea1e88e	-0.31622738
13	0xbea1e898	-0.31622767
14	0xbe464f7c	-0.19366258
15	0xbea1e898	-0.31622767
16	0xbe8f7f8f	-0.28027007
17	0x3f27c19d	0.65529805
18	0x41123ebe	9.140318
19	0xbf281b87	-0.65667003
20	0x41fa9ab2	31.325535
21	0xbea1e899	-0.3162277
22	0xbea68b83	-0.32528314
23	0x419c592a	19.543537
24	0xbea1e89a	-0.31622773
25	0xbea1e89a	-0.31622773
26	0xbea1e899	-0.3162277
27	0xbea1e88c	-0.31622732
28	0xbea6524a	-0.32484657
29	0xbea1e899	-0.3162277
30	0xbea1e897	-0.31622764
31	0xbfbbcf0e	-1.4672563
32	0xbea1e899	-0.3162277
33	0xbf00d403	-0.50323504
34	0xbea1e89b	-0.31622776
35	0xbea1e89a	-0.31622773
36	0xbea1e89a	-0.31622773
37	0xbea1e891	-0.31622747
38	0xbea1e897	-0.31622764
39	0xbea1e897	-0.31622764
40	0xbea1e896	-0.3162276
41	0x41d05d70	26.045624
42	0xbfc042df	-1.5020407
43	0xbea1e894	-0.31622756
44	0xbea1e876	-0.31622666
45	0xbee1ef1e	-0.44127744
46	0xbf65351e	-0.89534175
47	0xbea1e86c	-0.31622636
48	0xbea1e898	-0.31622767
49	0xbeface57	-0.4898555
50	0xbea1e898	-0.31622767
51	0xbea1e894	-0.31622756
52	0xbd7d8eb8	-0.061903685
53	0xbea1e89a	-0.31622773
54	0xbea1e890	-0.31622744
55	0xbfa6a674	-1.3019547
56	0xbea1e892	-0.3162275
57	0xbf00eddf	-0.5036296
58	0xbea1e89a	-0.31622773
59	0xbf2b4a20	-0.6690998
60	0xbf015aad	-0.50528985
61	0xbea1e89a	-0.31622773
62	0xbea1e89a	-0.31622773
63	0xbeb1a9cd	-0.3469986

dense_10/bias f4 [64]
0	0xbea1e89a	-0.31622773
1	0xbf72dce4	-0.948683
2	0xc14e8b9e	-12.909086
3	0xbea1e89a	-0.31622773
4	0xc009388b	-2.144076
5	0xc0f370f8	-7.60754
6	0xc01ba66e	-2.432033
7	0xbf1bcea6	-0.60862195
8	0xbfee3932	-1.8611205
9	0xc0fe6722	-7.9500895
10	0xc0141ea4	-2.3143702
11	0xbf21e83c	-0.63244987
12	0x411544b7	9.329276
13	0xbeb3949c	-0.35074317
14	0x4184c797	16.597456
15	0xbf825fad	-1.0185448
16	0x3b118b00	0.0022208095
17	0xbea1e89a	-0.31622773
18	0xbf0875dd	-0.53304845
19	0xbfe50054	-1.7890725
20	0xbc876028	-0.016525343
21	0xbf21e510	-0.63240147
22	0x4211e851	36.47687
23	0xbea1e89a	-0.31622773
24	0xc04afe78	-3.1717815
25	0xbf2a4476	-0.66510713
26	0xc0954e53	-4.665811
27	0xc0e02a79	-7.0051847
28	0xbea1e89a	-0.31622773
29	0xbf21e86d	-0.6324528
30	0xbe505117	-0.20343433
31	0xbf46b0a5	-0.7761329
32	0xc0abf5da	-5.373761
33	0xbf21e892	-0.632455
34	0xc1a9fb68	-21.247757
35	0xbf72db44	-0.9486582
36	0xbf71555a	-0.9427086
37	0xbfa1e887	-1.2649087
38	0xbea1e897	-0.31622764
39	0xc0682cd2	-3.6277356
40	0xbf1150d6	-0.5676397
41	0xbf21e7c8	-0.63244295
42	0xbf13dd6a	-0.57759726
43	0xbbef3fc0	-0.0073013008
44	0xbfd6d8b0	-1.6784878
45	0xbf21e71e	-0.6324328
46	0xbf9c7136	-1.2222049
47	0xc030d90a	-2.763247
48	0xbfb20238	-1.3906927
49	0xbf2726f8	-0.65293837
50	0xc015b222	-2.3389974
51	0xbc973250	-0.018456608
52	0xc28e3d4c	-71.11972
53	0xbf360910	-0.7110758
54	0xbeedbaae	-0.46431488
55	0xc06f8c81	-3.7429507
56	0x40867237	4.2014422
57	0xbf85d1aa	-1.0454609
58	0xbcb11bbc	-0.02161967
59	0x40469890	3.1030617
60	0xbf21e84e	-0.63245094
61	0xbcfec63e	-0.031100389
62	0x3fccdfb8	1.6005774
63	0xbf9b7da2	-1.2147715

std.constant f4 [64, 1925]
0	0xbeb06907	-0.3445513
1	0xbea973a7	-0.33096048
2	0x3c826f8c	0.01592233
3	0x3afce620	0.0019294657
4	0x3d1889c0	0.037240744
5	0xbbaab258	-0.0052092485
6	0xbc4039a4	-0.011732493
7	0xbb1e0e60	-0.0024117455
8	0xbd2059de	-0.039148204
9	0x3b806550	0.0039183274
10	0xbcdcc8d8	-0.026951239
11	0xbc44bb7c	-0.01200759
12	0xbd3c60b8	-0.045990676
13	0x3cf9a19c	0.03047257
14	0x3d086c72	0.033306547
15	0xbc9d9e4c	-0.01924052
16	0x3b8818d8	0.004153352
17	0xbc0b8418	-0.00851538
18	0x3c9b8ca4	0.018987961
19	0xbd576156	-0.05258306
20	0x3ce22ea4	0.02761013
21	0xbcf62bb9	-0.030050145
22	0xbc8d4c98	-0.017248437
23	0x3cb919d4	0.022595324
24	0x3cc2c308	0.023774639
25	0x3b2776e0	0.0025553033
26	0x3c8b720c	0.017022155
27	0xbc66d584	-0.014088992
28	0xbd302a05	-0.043008823
29	0x3d442f3c	0.04789661
30	0x3c8b9f24	0.017043658
31	0x3d1e30dc	0.038620815
32	0x3d2d1e1e	0.04226505
33	0x3adbc480	0.0016766936
34	0x3c260430	0.010132834
35	0xbd3aeb28	-0.04563442
36	0x3d18b828	0.037285
37	0x3bff9190	0.007799335
38	0x3b87ed58	0.0041481666
39	0xbcd3e63e	-0.025866624
40	0xbcfb8cb6	-0.030706745
41	0xbcf5d248	-0.030007496
42	0xbcd1aeaa	-0.025595982
43	0xbc738c10	-0.0148649365
44	0x3c765988	0.015035994
45	0x3d3564c4	0.04428555
46	0x3ca84394	0.020540036
47	0xbd256fed	-0.040389944
48	0xbb0982e0	-0.0020982549
49	0xbbc1eb10	-0.005917914
50	0x3c1bcf38	0.009509854
51	0x3d53a4fe	0.05167102
52	0x3d354a6e	0.044260435
53	0xbb51d1e0	-0.0032015964
54	0xbd0b25ab	-0.03397147
55	0xbcd30f70	-0.025764197
56	0xbd5f6dee	-0.054548196
57	0xbd17e199	-0.03708038
58	0x3cef98a4	0.02924759
59	0x3d469362	0.0484804
60	0x3d1c0a04	0.03809549
61	0x3bc72b08	0.006078128
62	0xbd2667e4	-0.04062642
63	0x3d053f02	0.032530792
64	0x3d2f9034	0.042862132
65	0xbd203d0c	-0.03912072
66	0xbd2797b7	-0.04091617
67	0x3cd55438	0.026041135
68	0xbce7af20	-0.028281748
69	0xbcf8d2ef	-0.030374018
70	0x3d4a81de	0.049440257
71	0xbc6403d4	-0.013916928
72	0x3c241b18	0.010016225
73	0xbcf33a2c	-0.029690824
74	0x3cf1b7fc	0.029506676
75	0xbcefc53f	-0.029268859
76	0x3d43c0ec	0.047791407
77	0x3c87a250	0.016556889
78	0xbc982d1a	-0.018576194
79	0x3ccc0214	0.024903335
80	0xbc283ba8	-0.010268129
81	0x3d38cc1a	0.04511652
82	0xbcb3db80	-0.021955252
83	0x3d3cbb50	0.046077073
84	0x3d4e55a0	0.050374627
85	0xbd43828a	-0.047731914
86	0xbd3e62d1	-0.046480957
87	0xbd0212a0	-0.031756043
88	0xbd40c326	-0.047061108
89	0x3c0b8210	0.008514896
90	0x3ca0f864	0.019649692
91	0xbd060ef0	-0.03272909
92	0x39d8e680	0.00041370466
93	0x3bc1a6f0	0.005909793
94	0xbcd84dc4	-0.026404269
95	0x3cc3aae4	0.023885198
96	0xbca2e2dc	-0.019883566
97	0xbd2688c0	-0.04065776
98	0x3c16d0c0	0.009205043
99	0xbd4be4fa	-0.049778916
100	0xbcb3356a	-0.021876056
101	0xbce54d17	-0.02799086
102	0xbcbcf016	-0.0230637
103	0xbd0618d0	-0.032738507
104	0x3cddf38c	0.027093671
105	0xbd3eaa65	-0.04654922
106	0xbd1b21a2	-0.03787387
107	0x3a1f35c0	0.0006073378
108	0xba8b28c0	-0.0010617003
109	0xbd3ed15a	-0.046586372
110	0x3d0d6b28	0.03452602
111	0x3d3a1a60	0.04543531
112	0xbc6d3ca8	-0.014479794
113	0xbc59bb10	-0.013289228
114	0xbc0099f8	-0.007849209
115	0xbc856ce0	-0.016287267
116	0x3bb4ac48	0.0055137016
117	0xbd5e57e1	-0.054283027
118	0x3cde4cc4	0.027136214
119	0x3d463762	0.04839266
120	0xbcbb5c3a	-0.022871125
121	0x3c19e1f0	0.009392247
122	0x3cc57f3c	0.024108522
123	0x3d2f266c	0.04276125
124	0x3b5b1970	0.003343191
125	0xbd105dea	-0.035245813
126	0x3d314124	0.043275014
127	0x3c9209f8	0.01782702
128	0x3d29d2ac	0.041460678
129	0x3d0a361e	0.033743016
130	0x3bab3090	0.005224295
131	0xbc805e7e	-0.015670057
132	0xbd60e116	-0.05490216
133	0x3d38b1c8	0.04509142
134	0x3d2f0f90	0.04273945
135	0xbcb73f98	-0.022369191
136	0x3d292284	0.041292682
137	0x3a6b2b40	0.00089709833
138	0xbd320e0f	-0.04347044
139	0xbcdbe2cc	-0.026841544
140	0x3d2ec4f6	0.042668305
141	0x3d17e628	0.03708473
142	0x3bc2ff00	0.0059508085
143	0x3c74beb0	0.014938042
144	0x3cbd416c	0.023102485
145	0x3d108460	0.035282493
146	0x3c760060	0.015014738
147	0x3c869938	0.016430482
148	0x3d38332a	0.04497067
149	0x3d076764	0.033057585
150	0xbd239af3	-0.039942693
151	0xbd21c090	-0.039490283
152	0x3ce9b038	0.02852641
153	0x3d502b5c	0.0508226
154	0x3c7b6f38	0.015346341
155	0x3ba11af0	0.0049165413
156	0xbd4b2734	-0.049597934
157	0xbc9a5370	-0.018838614
158	0x3d2b1bc0	0.04177451
159	0xbd1edb2a	-0.03878323
160	0x39554100	0.00020337477
161	0x3d5da548	0.054112703
162	0xbcc0fcca	-0.02355804
163	0x3d432944	0.047646776
164	0x3c07d278	0.008289926
165	0xbc776628	-0.01510004
166	0xbc0eba5c	-0.008711424
167	0x3d1aa280	0.03775263
168	0xbd0c71ca	-0.034288205
169	0x3cdeaa38	0.027180776
170	0x3d5585f8	0.052129716
171	0xba89fae0	-0.0010527037
172	0x3c5de978	0.013544433
173	0xbd383d77	-0.044980492
174	0xbba251b0	-0.0049535856
175	0xbce11e62	-0.027480308
176	0xbcbe1102	-0.02320147
177	0xbcc2eecf	-0.023795513
178	0xbd5b883e	-0.053596728
179	0x3d34e608	0.044164687
180	0xbd43e679	-0.047827218
181	0x3ce1c068	0.027557567
182	0x3b780780	0.0037846267
183	0xbce98568	-0.028505996
184	0x3c7a02b0	0.01525943
185	0xbd45a2e0	-0.048251033
186	0xbc863608	-0.016383186
187	0xbd205394	-0.039142206
188	0x3b300650	0.0026859231
189	0xbc1123c0	-0.008858621
190	0xbd3afc72	-0.045650907
191	0xbd38361e	-0.044973485
192	0x3c2b8fa0	0.010471255
193	0xbcf66669	-0.03007813
194	0xbd04d3fe	-0.032428734
195	0x3a02ea00	0.0004993975
196	0x39608000	0.00021409988
197	0xbd5e2e70	-0.054243505
198	0xbd548694	-0.051886156
199	0x3c91f6e8	0.01781793
200	0xbd175c7a	-0.036953427
201	0xbcefd050	-0.029274136
202	0x3ceda400	0.029008865
203	0xbccb5550	-0.024820954
204	0x3c843ea0	0.016143143
205	0xbd464e66	-0.04841461
206	0xbc32b950	-0.01090844
207	0x3b299120	0.0025873855
208	0x3c911394	0.01770953
209	0xbaaacc60	-0.0013030879
210	0xbd127890	-0.03575951
211	0xbd5f770f	-0.054556902
212	0xbcef7f93	-0.029235637
213	0x3cf2a0fc	0.029617779
214	0xbd0ac748	-0.033881456
215	0x3ab94320	0.0014134385
216	0x3d53f00c	0.0517426
217	0xbc31a58c	-0.010842692
218	0xbd1fc5c8	-0.03900698
219	0x3d1e67b2	0.03867311
220	0x3d0d7e18	0.03454408
221	0x3affc980	0.0019515008
222	0x3d560696	0.052252375
223	0xbcda2a34	-0.026631452
224	0xbc8cca42	-0.017186288
225	0x3cb84630	0.022494406
226	0x3cdcbe8c	0.026946329
227	0xbd53585d	-0.05159794
228	0x3d54b1a4	0.051927224
229	0x3d5e3fc0	0.054260015
230	0x3d23b6b2	0.039969154
231	0xbd3c0abc	-0.045908675
232	0x3b327c30	0.0027234666
233	0x3c8533d0	0.016260058
234	0x3c878324	0.016542025
235	0xbd582268	-0.052767187
236	0x3d5f2196	0.05447539
237	0x3d2195aa	0.03944937
238	0xbd4ca5a6	-0.049962662
239	0xba9b5ac0	-0.0011852607
240	0xbc977f1c	-0.018493228
241	0xbd124bce	-0.035716824
242	0x3d139ad2	0.03603632
243	0x3d52871e	0.05139839
244	0x3cb108d8	0.021610662
245	0xbb89bca8	-0.004203398
246	0x3cec5090	0.028847009
247	0xbd2f9fab	-0.04287688
248	0xbc5841cc	-0.013199281
249	0xba820480	-0.0009919554
250	0x3c299b30	0.010351941
251	0x3c4dda90	0.012564316
252	0x3c2f3ee8	0.01069615
253	0x3cc1dea4	0.023665734
254	0x3d5c01bc	0.05371259
255	0xbd2e2ae7	-0.042521384

std.constant1 f4 [64, 64]
0	0xbee6a5d4	-0.45048392
1	0xbe1363bf	-0.14393519
2	0xbed16c7d	-0.40903082
3	0xbea5f0ae	-0.32410187
4	0xbe525877	-0.20541559
5	0xbea81f82	-0.3283654
6	0xbe029823	-0.12753348
7	0xbeb99c68	-0.3625214
8	0xbe936f58	-0.28795886
9	0xbeed12c4	-0.4630338
10	0xbe09a6ae	-0.1344249
11	0xbdaaa762	-0.08332707
12	0xbe9ed471	-0.31021455
13	0xbe08bed5	-0.13354047
14	0xbee495b2	-0.44645458
15	0xbe45306f	-0.19256757
16	0xbe93a44a	-0.2883628
17	0xbe9f8504	-0.3115617
18	0xbeafc2fc	-0.3432845
19	0xbe581197	-0.2110046
20	0xbe4057bb	-0.18783467
21	0xbd954b46	-0.07289748
22	0xbf019798	-0.5062194
23	0xbefa17cd	-0.48846284
24	0xbe16ac42	-0.14714149
25	0xbe239561	-0.15974952
26	0xbdd28fa2	-0.10281302
27	0xbed68b37	-0.41903087
28	0xbe44c21b	-0.1921467
29	0xbebf793e	-0.37397188
30	0xbd15a7b8	-0.036536902
31	0xbec700ca	-0.3886779
32	0xbe25251b	-0.16127436
33	0xbe8ef796	-0.27923268
34	0xbe3a9ba9	-0.18223442
35	0xbe3c6283	-0.18396954
36	0xbe9aaa88	-0.3020823
37	0xbed0006c	-0.40625322
38	0xbe952667	-0.2913086
39	0xbd57a618	-0.052648634
40	0xbe7bcf3d	-0.24590774
41	0xbd93e262	-0.072209135
42	0xbef057bf	-0.46941945
43	0xbe01d278	-0.12677944
44	0xbe19deb5	-0.15026362
45	0xbefe0fa9	-0.49621323
46	0xbd6c3bdc	-0.057674274
47	0x3d638a6c	0.05555193
48	0xbec1c400	-0.3784485
49	0xbde46572	-0.11152162
50	0x3e07f5e9	0.13277401
51	0xbeda198b	-0.42597613
52	0xbdfe613d	-0.124208905
53	0xbe9e4cbc	-0.3091792
54	0xbe9c9093	-0.3057905
55	0xbe86162e	-0.26188797
56	0xbf07e1c8	-0.5307889
57	0xbf02017c	-0.50783515
58	0xbdd31477	-0.10306638
59	0xbd8f636e	-0.070013866
60	0xbe631479	-0.22175778
61	0xbdd0c85e	-0.10194467
62	0xbe39107b	-0.18072693
63	0xbe5bae17	-0.21453129
64	0xbeea405f	-0.45752236
65	0xbeee3ffc	-0.4653319
66	0xbebcf340	-0.36904335
67	0xbed9cfa4	-0.4254123
68	0xbee2dc3d	-0.44308653
69	0xbdfba71e	-0.122877344
70	0xbeb7ee45	-0.35923973
71	0xbe53fc07	-0.2070161
72	0xbdd64b92	-0.10463633
73	0xbf02c821	-0.5108662
74	0xbeccd94e	-0.4000954
75	0x3e00cac7	0.12577353
76	0xbf077803	-0.529175
77	0xbde993b2	-0.11405124
78	0xbeb63a8c	-0.35591543
79	0xbe60d4f5	-0.21956237
80	0xbeb65bc9	-0.35616902
81	0xbea3103e	-0.3184833
82	0xbed9d00a	-0.42541534
83	0xbebf6b6c	-0.37386644
84	0xbf03e63e	-0.51523197
85	0xbd89e432	-0.06732978
86	0xbeaf56b6	-0.34245843
87	0xbe42122f	-0.18952249
88	0x3e52b7df	0.20577954
89	0xbed88b06	-0.42293566
90	0xbea6dffc	-0.32592762
91	0xbefc2cb3	-0.49252853
92	0xbdefe483	-0.11713507
93	0xbec2afa0	-0.38024616
94	0xbe3fe85d	-0.18740983
95	0xbefb407a	-0.4907263
96	0xbe2057f9	-0.15658559
97	0xbdfc3e02	-0.123165146
98	0xbddb779a	-0.107161716
99	0xbeab46d6	-0.3345248
100	0xbedae5c8	-0.42753434
101	0xbea20461	-0.31643966
102	0xbe73c2bd	-0.23804756
103	0xbd8aa8d6	-0.06770484
104	0xbe9c99a0	-0.30585957
105	0xbe5cb443	-0.2155314
106	0xbe9786f6	-0.29595155
107	0x3c208c40	0.009799063
108	0xbee08f2d	-0.43859234
109	0xbe30bba1	-0.17259075
110	0xbd57b368	-0.05266133
111	0x3e1ffadf	0.15623043
112	0xbefaca32	-0.48982388
113	0xbe9afb1a	-0.302697
114	0xbe3b39ba	-0.1828374
115	0xbe9af37e	-0.30263895
116	0x3d09aecc	0.033613965
117	0xbe819b24	-0.25313675
118	0xbe9b0da6	-0.3028385
119	0xbec1e772	-0.3787189
120	0xbead3ab8	-0.3383386
121	0xbe92b495	-0.28653398
122	0xbba09480	-0.004900515
123	0xbdd2e53e	-0.10297631
124	0xbe68ce05	-0.2273484
125	0xbe445e29	-0.19176544
126	0xbe6bfc5b	-0.23045485
127	0xbea67370	-0.32509947
128	0xbe33c8de	-0.17557094
129	0xbda23638	-0.07920498
130	0x3d28eadc	0.041239604
131	0x3e1430fd	0.14471813
132	0xbe1e67e2	-0.15469316
133	0xbdd89d87	-0.10576921
134	0x3e328c09	0.17436232
135	0x3e347217	0.17621647
136	0x3bb9f880	0.0056753755
137	0x3da2940a	0.079383925
138	0xc1175f96	-9.460836
139	0x3efabb1d	0.4897088
140	0xbe3c5b44	-0.1839419
141	0xbe3a15eb	-0.18172424
142	0x3e39df3c	0.18151563
143	0x3dbd6b9a	0.09249039
144	0x3eabdee5	0.33568493
145	0x3f818052	1.0117285
146	0xbf62c7e7	-0.88586277
147	0x3ebc6bf9	0.36801127
148	0xc15aecb8	-13.682793
149	0x3e1c5432	0.15266493
150	0xbde2dfbc	-0.1107783
151	0xbd1861ee	-0.037202768
152	0xbe6a95d9	-0.22908725
153	0x3de2ea46	0.1107984
154	0x3ddef14a	0.10885866
155	0xbcadd2c8	-0.021218672
156	0x3f54cb5a	0.8312279
157	0xbe15f2ee	-0.14643452
158	0x3f011de1	0.50436217
159	0xbd405a70	-0.046961248
160	0x3e3ddc91	0.1854117
161	0xbe1d1a30	-0.15342021
162	0xbcafadb0	-0.021445125
163	0xbd82ff9e	-0.06396411
164	0x3dc10892	0.09425463
165	0x3d554814	0.052070692
166	0xbe4f86bc	-0.20266241
167	0x3ec56e08	0.3856051
168	0xbd7066b0	-0.05869168
169	0xc187c46a	-16.970905
170	0xbf21dd05	-0.63227874
171	0x3d8e871e	0.06959365
172	0x3e362d2f	0.17790674
173	0xbe03eaf4	-0.12882596
174	0x3e87111e	0.26380247
175	0x3eef6d60	0.46763134
176	0xbb9e2800	-0.0048265457
177	0xbf468264	-0.7754271
178	0x3e0926d9	0.13393725
179	0x3dda0c56	0.10646884
180	0x3e498a42	0.19681647
181	0x3d6bf24c	0.05760412
182	0xbe325619	-0.17415656
183	0x3ddf46f4	0.10902205
184	0xbcabf300	-0.020989895
185	0x3f180226	0.5937828
186	0x3efcc2cc	0.49367368
187	0x3f3fdcbb	0.7494618
188	0xbe3ad249	-0.1824428
189	0xbe1cfff4	-0.15332013
190	0x3c565680	0.013082147
191	0x3eb754f4	0.35807002
192	0xbe2a89c3	-0.16654114
193	0xbe8faeb2	-0.2806297
194	0xbec20e96	-0.37901753
195	0xbe9d0eea	-0.3067544
196	0xbe25f751	-0.16207625
197	0xbedad0cd	-0.42737427
198	0xbdffc7d2	-0.124892846
199	0xbe381a27	-0.17978726
200	0xbe500d4d	-0.20317574
201	0xbe29d14d	-0.16583748
202	0xbe4ce01f	-0.2000737
203	0x3e43ce7b	0.19121735
204	0xbe1e4eef	-0.15459798
205	0xbe38070d	-0.1797144
206	0xbe20189b	-0.15634386
207	0xbe93fbd1	-0.28903058
208	0xbeb4a0d8	-0.35278964
209	0xbea7044c	-0.32620466
210	0xbf030870	-0.5118475
211	0xbea796ed	-0.32732335
212	0xbe6be547	-0.23036681
213	0xbc3e4640	-0.011613429
214	0xbe768365	-0.2407356
215	0xbe8e2b2a	-0.27767307
216	0x3d9989fe	0.07497023
217	0xbe9fc0ac	-0.31201684
218	0xbe74ec2b	-0.23918216
219	0xbdeb3f1a	-0.11486645
220	0xbe10b922	-0.14133123
221	0xbe851184	-0.25989926
222	0x3e1a982f	0.15097116
223	0xbec2890a	-0.37995178
224	0xbe5200e7	-0.20508157
225	0xbef98652	-0.4873529
226	0xbdd36faa	-0.103240326
227	0xbe0f91bf	-0.14020441
228	0xbe020db9	-0.12700547
229	0xbef59852	-0.47967774
230	0xbdef4812	-0.11683668
231	0xbe01faf1	-0.12693383
232	0xbec572dd	-0.38564196
233	0xbdf78219	-0.12085361
234	0xbe2c6313	-0.16834669
235	0xbd8dec18	-0.06929797
236	0xbe1accdb	-0.15117209
237	0xbeb986c9	-0.36235645
238	0xbe129468	-0.14314425
239	0xbdb04a66	-0.086079404
240	0xbeadd989	-0.3395503
241	0xbece1154	-0.40247595
242	0x3d5383c4	0.051639333
243	0xbe933b66	-0.28756255
244	0xbd6f040c	-0.05835347
245	0xbeba91d5	-0.36439386
246	0xbe605187	-0.219061
247	0xbece4412	-0.4028631
248	0xbea1c186	-0.3159296
249	0xbe8f3f5a	-0.2797802
250	0xbcf974d0	-0.030451208
251	0xbdbda9d9	-0.092609115
252	0xbee367b5	-0.4441506
253	0xbefd6b60	-0.49495983
254	0xbec8ec56	-0.3924281
255	0xbedc2348	-0.42995667

std.constant2 f4 [1, 64]
0	0x3e589a0e	0.21152517
1	0x3e9606d9	0.293021
2	0x3e165784	0.14681822
3	0x3e305ea9	0.1722361
4	0x3b29d480	0.0025914013
5	0x3e4bc5bc	0.19899648
6	0xbe837b25	-0.2567989
7	0xbca3b3b8	-0.019983158
8	0xbdf24100	-0.11828804
9	0xbd27a058	-0.0409244
10	0xbd9b0530	-0.07569349
11	0xbe16b369	-0.14716877
12	0x3fdff3a8	1.7496233
13	0xbe5db8c9	-0.21652521
14	0xbf5cdd3c	-0.86275077
15	0xbf26e1b4	-0.65188146
16	0x4031f2bf	2.780441
17	0x3e961f28	0.29320645
18	0x3efb8d43	0.49131212
19	0xbdc18c44	-0.09450582
20	0x3d9d678a	0.07685764
21	0xbe61abf7	-0.22038256
22	0xbff8b095	-1.9428889
23	0x3e1ccf5e	0.1531348
24	0xbf9935e8	-1.1969576
25	0x3e9bd056	0.30432385
26	0x3e23b80e	0.1598818
27	0xbe2eb61d	-0.17061658
28	0x3c9e7920	0.019344866
29	0xbe86e148	-0.2634375
30	0xbda3ae41	-0.07992221
31	0x3e42a604	0.19008642
32	0x3f52a381	0.8228074
33	0xbc9171b0	-0.017754406
34	0x3f11e8f2	0.5699607
35	0x3dfa4f10	0.12222111
36	0x3e9247e7	0.28570482
37	0xbd633588	-0.055470973
38	0x3e36e057	0.17859016
39	0x3e3864ea	0.18007246
40	0xbe0ab81c	-0.13546795
41	0xbd9201ce	-0.071292505
42	0x3cca587a	0.024700392
43	0x3f533d2d	0.8251522
44	0xbf2be966	-0.6715301
45	0xbe394e34	-0.18096238
46	0xbd8d3fa6	-0.068969056
47	0xbdfd99e8	-0.12382871
48	0x3e856f2d	0.26061383
49	0x3e2c7ab2	0.1684368
50	0x3ba43400	0.0050110817
51	0xbcc4ae28	-0.024008825
52	0x3e9b61c3	0.30348024
53	0x3e38e67f	0.18056677
54	0x3ee9224d	0.45533982
55	0xbd910f84	-0.070830375
56	0xbf3c5d3b	-0.7357976
57	0x3e12366e	0.14278576
58	0x3dbbb2d2	0.09164967
59	0xbf8f9cf7	-1.1219777
60	0xbe411cde	-0.18858668
61	0x3de5b4d5	0.112161316
62	0xbf40201a	-0.75048983
63	0x3e6db1df	0.23212384
